pre-trained/ac0_dnn98000.pth (torch, 159879 bytes, 11 tensors)

input_layer.weight f4 [128, 36]
-0.16007432 -0.08947357 0.12333079 -0.13928208 0.014943346 0.08093543 0.009028539 0.14299811
-0.06880965 0.026708722 0.1298316 0.074528515 0.07331757 0.113884464 -0.059878156 -0.13677905
0.15761597 0.10859467 0.052059606 -0.14636895 -0.14713965 -0.049874507 0.043020964 0.03321737
0.09672366 0.048125386 -0.035802186 0.10794614 -0.14033443 0.1487331 0.032746673 0.08426456
0.055931926 -0.06635114 0.068275526 0.10153498 -0.03170322 0.054477707 -0.09950509 -0.012819901
-0.06994772 -0.012157798 0.045610324 0.04955603 -0.08823013 -0.015491262 -0.07149695 -0.05325385
0.14346977 -0.037522122 0.045461 0.06460369 0.025240317 -0.06476563 0.11655201 -0.0029644817
-0.12171098 -0.0022774488 -0.04769641 0.012554586 0.034385994 -0.005707547 -0.009940818 0.07482199
-0.01732345 0.094846085 -0.028421298 -0.019805714 -0.15044793 0.10202356 0.1128539 -0.11308777
-0.043652438 -0.15225123 -0.041961633 0.13757573 0.069501474 -0.14703849 0.09314866 -0.059606396
-0.058014736 0.050251737 -0.109874666 0.10785963 0.110826686 -0.049607754 -0.0018667579 0.07204342
-0.13671915 0.06816544 0.110801354 0.11679317 0.020741329 -0.057029545 0.011614278 0.10336311
0.1489081 0.12328483 0.1237454 0.036833063 0.09963475 0.04149811 0.106319085 -0.004520163
-0.021752119 0.078803375 0.1465409 -0.06706117 0.0992599 -0.02787298 -0.031008288 -0.07104413
-0.022847906 0.10381381 -0.16395858 -0.03594263 0.029575884 -0.091601655 0.021201015 -0.09905233
-0.055038974 0.10351582 0.03946878 -0.031486496 -0.029101089 -0.1424883 0.026534244 0.1367238
-0.04864055 0.0556124 0.07784413 0.06024395 -0.08766304 -0.036696717 -0.033212483 -0.078776
0.08271873 -0.14085925 0.055096447 0.041477203 0.109145775 -0.013469711 -0.04880663 -0.05775561
-0.048267767 0.03065753 0.043732777 0.05556953 0.009835616 0.058811903 -0.157925 -0.047675274
0.049277797 0.1473247 0.013878897 -0.06502251 0.15554558 0.0788666 -0.032258347 0.005248606
-0.10178386 -0.15474896 -0.07590228 -0.14410363 0.14930193 0.12915997 0.14576654 0.0228284
0.056137368 -0.025856435 0.13501562 0.05466567 0.064444974 -0.08548089 0.0450332 -0.043584406
-0.10408312 0.11355211 -0.06119766 0.06391202 -0.1626561 0.092949316 -0.08877504 0.023279011
0.07886563 -0.030734286 -0.03471063 -0.045995116 -0.028564215 -0.0068556815 -0.14791855 -0.06642288
-0.11407866 0.033746168 0.1301771 -0.10045265 0.14228512 -0.12649536 -0.09716368 -0.1011654
-0.10332807 -0.11187129 0.028706 0.16001077 -0.096356794 -0.066521466 0.09276004 -0.0066760182
0.070757076 0.0866576 -0.093274556 -0.04098256 -0.02911818 -0.16613504 0.08935432 0.14736976
0.10621031 -0.12704727 -0.037037328 -0.04912468 0.04663752 0.02878344 0.13244762 -0.1586633
-0.056430005 -0.06282308 -0.13355964 0.07798912 -0.058084846 0.044034526 -0.015239999 -0.039461732
0.15297423 0.11207147 -0.1606921 -0.075811625 -0.15651962 0.05672264 0.09975888 0.04100941
0.06388092 0.0822774 -0.033375666 0.027706698 0.0025743842 -0.013895631 0.164041 0.011361018
0.107984826 -0.090177976 -0.10382372 -0.0995784 -0.02614893 -0.019051984 0.0033837557 -0.011442915
00000000: 86ea 23be eb3d b7bd da94 fc3d f69f 0ebe
00000010: f0d4 743c 7ac1 a53d 70ec 133c 196e 123e
00000020: 13ec 8cbd 40cc da3c 93f2 043e 68a2 983d
00000030: 8627 963d 423c e93d cc42 75bd cf0f 0cbe
00000040: 1566 213e e266 de3d 743c 553d bee1 15be
00000050: c7ab 16be 3649 4cbd c036 303d f00e 083d
00000060: 0e17 c63d 201f 453d 50a5 12bd de12 dd3d
00000070: d4b3 0fbe 7d4d 183e 6021 063d e692 ac3d
00000080: e018 653d 1be3 87bd 0ad4 8b3d 92f1 cf3d
00000090: 3cdb 01bd 0424 5f3d 53c9 cbbd 900a 52bc
000000a0: c040 8fbd 8031 47bc e4d1 3a3d 44fb 4a3d
000000b0: 00b2 b4bd 10cf 7dbc fe6c 92bd b620 5abd
000000c0: bde9 123e ccb0 19bd 5035 3a3d f04e 843d
000000d0: c8c4 ce3c d8a3 84bd d2b2 ee3d c047 42bb
000000e0: 9b43 f9bd 4041 15bb 505d 43bd c0b1 4d3c
000000f0: 54d8 0c3d 6006 bbbb d0de 22bc 463c 993d
00000100: e8e9 8dbc aa3e c23d c8d3 e8bc 983f a2bc
00000110: 060f 1abe baf1 d03d f21f e73d 909a e7bd
00000120: e6cc 32bd bfe7 1bbe f6df 2bbd a7e0 0c3e
00000130: ca56 8e3d 4291 16be bac4 be3d d625 74bd
00000140: dca0 6dbd c4d4 4d3d f805 e1bd 82e5 dc3d
00000150: 1af9 e23d 8031 4bbd 00ae f4ba 808b 933d
00000160: 1b00 0cbe 529a 8b3d d2eb e23d 4231 ef3d
00000170: b8e9 a93c d097 69bd d049 3e3c 0ab0 d33d
00000180: 5d7b 183e c27c fc3d 3a6e fd3d 44de 163d
00000190: 4e0d cc3d ecf9 293d d2bd d93d e01d 94bb
000001a0: 8031 b2bc aa63 a13d d10e 163e 5e57 89bd
000001b0: c648 cb3d e055 e4bc 1805 febc 967f 91bd
000001c0: 882b bbbc 569c d43d c2e4 27be 9438 13bd
000001d0: 2049 f23c a699 bbbd c0ad ad3c f3db cabd
000001e0: 8c70 61bd 1a00 d43d 04aa 213d fcf7 00bd
000001f0: 6865 eebc 74e8 11be 585e d93c 5301 0c3e
00000200: 503b 47bd d4c9 633d be6c 9f3d 5cc2 763d
00000210: ae88 b3bd 4c4f 16bd d009 08bd 5055 a1bd
00000220: 7068 a93d 683d 10be d0ac 613d 00e4 293d
00000230: d287 df3d 10b0 5cbc 76e9 47bd 2691 6cbd
00000240: 6cb4 45bd 8025 fb3c 2421 333d e09c 633d
00000250: 9025 213c c0e4 703d 17b7 21be 2647 43bd
00000260: 84d7 493d 49dc 163e 5064 633c 862a 85bd
00000270: 5747 1f3e d084 a13d 5421 04bd 80fc ab3b
00000280: 0e74 d0bd 8376 1ebe a872 9bbd e78f 13be
00000290: 9be2 183e 8342 043e d343 153e a002 bb3c
000002a0: 4cf0 653d e0d0 d3bc 8941 0a3e 1ce9 5f3d
000002b0: bafb 833d 9b10 afbd bc74 383d 9085 32bd
000002c0: 8829 d5bd 028e e83d 66aa 7abd 4ee4 823d
000002d0: 528f 26be 365c be3d b0cf b5bd a0b3 be3c
000002e0: 4e84 a13d 78c6 fbbc bc2c 0ebd 6065 3cbd
000002f0: 80ff e9bc a0a5 e0bb f677 17be b808 88bd
00000300: 13a2 e9bd 6c39 0a3d 254d 053e 1eba cdbd
00000310: 31b3 113e 0088 01be c0fd c6bd ce2f cfbd
00000320: ab9d d3bd c61c e5bd d828 eb3c ddd9 233e
00000330: b656 c5bd 683c 88bd faf8 bd3d 80c2 dabb
00000340: 16e9 903d 8a79 b13d bb06 bfbd 54dd 27bd
00000350: 4089 eebc 4e1f 2abe 66ff b63d 19e8 163e
00000360: ca84 d93d ae18 02be 74b4 17bd f636 49bd
00000370: fc06 3f3d 40cb eb3c 59a0 073e a278 22be
00000380: 2623 67bd 63a9 80bd dcc3 08be c2b8 9f3d
00000390: 60ea 6dbd 8c5d 343d 30b1 79bc a0a2 21bd
000003a0: 47a5 1c3e ba85 e53d 788c 24be 2043 9bbd
000003b0: ae46 20be 0056 683d 624e cc3d 7cf9 273d
000003c0: 00d4 823d 0e81 a83d ecb4 08bd 28f9 e23c
000003d0: 00b7 283b 80aa 63bc 5dfa 273e 9023 3a3c
000003e0: 2627 dd3d 3baf b8bd 88a1 d4bd c3ef cbbd
000003f0: 4836 d6bc e812 9cbc 00c2 5d3b 107b 3bbc

input_layer.bias f4 [128]
0.012952372 -0.11149673 -0.114546955 -0.002026841 -0.09026879 0.005718589 0.04370989 0.14575021
0.124080285 0.013996795 -0.12654738 0.058618262 -0.06902467 -0.044123374 0.115697935 0.012543783
0.1245092 0.116729215 -0.075170696 -0.04961898 -0.07288337 -0.1387712 0.030796468 0.076152936
0.049947977 -0.08044724 0.11890508 0.07350345 -0.1481624 0.046711206 -0.07816313 0.110121384
-0.16113798 -0.11981635 0.12803896 0.048089743 -0.15435933 0.13230146 -0.011652961 0.024060607
-0.0057059377 -0.09890239 -0.08790656 0.01400058 -0.09520291 0.0012935549 0.16632052 0.02330862
0.021382675 -0.14301768 0.09478809 -0.036961615 0.16540523 -0.023268953 0.03518565 -0.14598826
-0.07666473 -0.13531339 -0.056391045 -0.036872342 0.07292499 -0.13544464 -0.055246376 -0.08026695
-0.064762875 0.07695331 -0.0064516068 0.1631761 -0.14426097 -0.086526334 0.14060731 -0.12656298
0.0070661157 0.08146013 0.07323474 0.1368727 -0.0349824 0.16231386 -0.15180874 -0.16435514
-0.021978065 0.063921586 0.13928123 -0.12541895 0.07595278 0.15540846 0.06424506 0.11131938
-0.00697951 -0.009395495 0.006924376 -0.11164107 -0.043846846 -0.15285382 0.14448418 0.14247824
0.13724183 -0.13921157 -0.026961088 0.006125048 -0.04464867 0.00501509 0.0571301 -0.09919381
-0.08160339 0.07098538 0.07222892 -0.049920186 0.061027125 -0.017428592 -0.015980959 0.0654937
0.020795658 0.13978417 0.08794959 0.01098375 -0.09261845 -0.03089796 0.095850155 -0.0287534
0.057607904 0.16448723 0.033824384 0.096582726 0.08399795 0.13850014 0.009990975 -0.069383964
00000000: 3036 543c 6658 e4bd 9897 eabd c0d4 04bb
00000010: d8de b8bd 0063 bb3b 2409 333d 8b3f 153e
00000020: ce1d fe3d d052 653c a395 01be b419 703d
00000030: ce5c 8dbd b6ba 34bd 0af3 ec3d 7084 4d3c
00000040: aefe fe3d ba0f ef3d 18f3 99bd 463d 4bbd
00000050: e043 95bd 0a1a 0ebe e048 fc3c 12f6 9b3d
00000060: 4096 4c3d 86c1 a4bd 8284 f33d fa88 963d
00000070: e2b7 17be 4054 3f3d fe13 a0bd 5287 e13d
00000080: 5b01 25be 4662 f5bd a51c 033e c0f9 443d
00000090: 5f10 1ebe 097a 073e 10ec 3ebc c01a c53c
000000a0: e0f8 babb 568d cabd 5b08 b4bd b062 653c
000000b0: bef9 c2bd 808c a93a ed4f 2a3e b8f1 be3c
000000c0: b82a af3c 3a73 12be 4220 c23d 1065 17bd
000000d0: fd5f 293e 889e bebc d41e 103d f27d 15be
000000e0: 6602 9dbd 988f 0abe 4cfa 66bd 7407 17bd
000000f0: b259 953d 00b2 0abe 064a 62bd 0063 a4bd
00000100: 66a2 84bd b299 9d3d 0068 d3bb a317 273e
00000110: 26b9 13be b834 b1bd 5dfb 0f3e ba99 01be
00000120: e08a e73b 92d4 a63d 18fc 953d 5b28 0c3e
00000130: b449 0fbd 9b35 263e c073 1bbe b74c 28be
00000140: 580b b4bc 52e9 823d bd9f 0e3e d36d 00be
00000150: 228d 9b3d 6523 1f3e ea92 833d 6afb e33d
00000160: 60b4 e4bb 90ef 19bc e0e5 e23b 13a4 e4bd
00000170: c098 33bd b685 1cbe a9f3 133e d1e5 113e
00000180: 1f89 0c3e 7a8d 0ebe 80dd dcbc a0b4 c83b
00000190: 86e1 36bd a055 a43b 4001 6a3d 2026 cbbd
000001a0: ae1f a7bd c860 913d c2ec 933d 1c79 4cbd
000001b0: 94f7 793d 68c6 8ebc 80ea 82bc 9021 863d
000001c0: a85b aa3c 9523 0f3e ea1e b43d 30f5 333c
000001d0: beae bdbd b81d fdbc 164d c43d 408c ebbc
000001e0: 44f6 6b3d 576f 283e 708b 0a3d 2acd c53d
000001f0: 1e07 ac3d fbd2 0d3e 30b1 233c 2e19 8ebd

hidden_layer.weight f4 [128, 128]
0.086304136 -0.022374615 -0.06847519 -0.06162142 0.003850691 0.06578667 0.029601373 -0.061123602
0.027355924 0.00010098517 -0.052001275 -0.013389535 0.0861891 -0.00028195977 -0.040696543 0.0145807415
0.026431054 -0.02107115 0.063758634 0.031011365 0.0018907264 -0.06341028 -0.02763711 0.03475737
0.03006734 0.0061980113 0.019090228 -0.031124488 -0.05857528 -0.029254958 -0.06774519 0.018620417
-0.021920405 -0.028287858 0.0153061 -0.0012114346 -0.03852243 -0.062892705 0.048983283 0.046378635
-0.0062088 0.034236304 -0.057680987 0.050185688 0.039894156 -0.06696132 0.037636943 -0.032645084
0.015385866 0.05601006 0.08687756 -0.03778546 -0.082548924 0.046947323 0.051614203 0.031415313
-0.053028375 -0.0712684 -0.03496239 0.0757859 0.03243664 -0.047147498 0.08635173 0.01711341
-0.06823139 0.0572569 0.048089452 -0.06331788 -0.08667678 -0.040792566 0.066922896 0.06491002
0.018259227 0.059623845 -0.059624247 -0.042212177 -0.0428234 -0.010801524 -0.011981234 -0.016127594
-0.03908687 0.039391197 0.019210488 -0.045098074 0.00039612502 -0.024698935 0.0661897 0.04802034
0.020133004 0.056208782 -0.030880205 -0.045067202 -0.04760457 -0.039403837 -0.02303236 -0.07180251
-0.061209805 -0.040044565 -0.046391584 0.012519024 0.06381226 0.0069299713 0.074436225 -0.04689954
-0.04606009 -0.0014173761 0.0006731078 0.0746082 0.031222366 -0.07308948 -0.037614103 -0.06187346
-0.03498849 0.056105368 -0.067628905 0.017780483 0.009280115 -0.015322648 -0.01625944 -0.080038
0.027130619 0.040302403 0.07828271 -0.057009365 -0.013446964 -0.054567713 -0.08351288 0.04623171
-0.028965391 0.02642385 -0.03752276 0.07952585 0.023727618 -0.055844564 -0.04357882 -0.019403629
-0.01574111 -0.05681275 -0.0013191402 0.019825824 -0.048444252 -0.045839712 -0.025304876 0.0045476556
-0.08665751 0.07000268 -0.012525246 -0.07652525 0.080090396 -0.03573609 -0.04615475 0.027285293
0.06673702 0.05539926 0.010269374 -0.022890143 -0.042594235 -0.012185708 -0.07803236 -0.042119876
0.05121491 0.06933165 -0.057612456 0.015286155 0.06101305 0.039878048 -0.016302347 -0.03889055
-0.049593553 0.079896204 -0.0133756995 0.011947401 -0.009012714 -0.016550496 -0.021132663 -0.023587808
-0.06871452 0.047841452 0.0715918 -0.072639324 -0.05829403 -0.07048282 -0.060204707 0.059291057
0.018934801 -0.007916167 -0.0011879206 0.017921448 -0.014173269 -0.056535896 -0.047321122 -0.036776435
0.005424008 0.007905856 0.053459667 0.05207912 -0.03752395 -0.012894914 0.002207823 -0.04081016
0.013368055 -0.06791114 -0.04637602 0.063210644 0.032681353 -0.0068932623 -0.031011239 0.04036068
0.0543895 -0.025754608 -0.02585724 -0.056531355 -0.06346408 -0.0012455434 -0.083715945 -0.028700832
0.043813802 0.05007539 0.0025535598 -0.010372572 -0.023660041 -0.016769454 0.011938244 0.03169409
-0.07447444 -0.0687104 0.06530892 0.0076369643 0.08256344 0.08136574 -0.033860683 0.009837098
-0.07725467 0.075386085 0.036067493 -0.055198558 0.052731402 -0.08513581 0.014393762 0.031533457
0.079725035 0.012832619 -0.017162725 -0.01856815 -0.08205216 0.03509572 0.08740025 -0.086501926
0.06398166 0.01643753 0.073505096 -0.068880014 -0.014565572 -0.0040834844 -0.018666744 0.08450087
00000000: 39c0 b03d f84a b7bc b83c 8cbd be66 7cbd
00000010: e05b 7c3b 29bb 863d 947e f23c be5c 7abd
00000020: 8819 e03c 00c8 d338 4aff 54bd c85f 5bbc
00000030: e983 b03d 00d4 93b9 6bb1 26bd 10e4 6e3c
00000040: f085 d83c 689d acbc e393 823d 8c0b fe3c
00000050: 40d2 f73a 40dd 81bd 3867 e2bc be5d 0e3d
00000060: c84f f63c b018 cb3b 1c63 9c3c c8f8 febc
00000070: a2ec 6fbd 18a8 efbc fdbd 8abd d889 983c
00000080: 6c92 b3bc f0bb e7bc 70c6 7a3c 00c9 9eba
00000090: b2c9 1dbd e4cd 80bd b2a2 483d 86f7 3d3d
000000a0: 3073 cbbb 5e3b 0c3d e642 6cbd 828f 4d3d
000000b0: 0e68 233d 0423 89bd 3229 1a3d dab6 05bd
000000c0: 0015 7c3c ce6a 653d ddec b13d edc4 1abd
000000d0: 690f a9bd d64b 403d 6a69 533d 58ad 003d
000000e0: 4834 59bd 2bf5 91bd b934 0fbd a335 9b3d
000000f0: 48dc 043d bc1d 41bd 2dd9 b03d 6c31 8c3c
00000100: e6bc 8bbd 3686 6a3d 72f9 443d ceac 81bd
00000110: 9883 b1bd 1b16 27bd df0e 893d 8bef 843d
00000120: 6094 953c 2238 743d 8e38 74bd ade6 2cbd
00000130: 9767 2fbd e0f8 30bc f04c 44bc 041e 84bc
00000140: 8e19 20bd aa58 213d 505f 9d3c c2b8 38bd
00000150: 00af cf39 6c55 cabc 778e 873d fab0 443d
00000160: f8ed a43c 2e3b 663d 7cf8 fcbc 6398 38bd
00000170: 02fd 42bd eb65 21bd 5cae bcbc 320d 93bd
00000180: 22b7 7abd c505 24bd 1a05 3ebd 981c 4d3c
00000190: 01b0 823d d014 e33b 0572 983d bb19 40bd
000001a0: 81a9 3cbd 40c7 b9ba 8073 303a 2fcc 983d
000001b0: 0cc6 ff3c f0af 95bd 3f11 1abd 066f 7dbd
000001c0: 1750 0fbd bece 653d 0681 8abd 60a8 913c
000001d0: a00b 183c d80b 7bbc 8432 85bc f7ea a3bd
000001e0: 0841 de3c 2214 253d af52 a03d a782 69bd
000001f0: a850 5cbc 6582 5fbd cd08 abbd 765d 3d3d
00000200: d448 edbc d476 d83c 77b1 19bd 73de a23d
00000210: 6c60 c23c 45bd 64bd b47f 32bd 5cf4 9ebc
00000220: 80f3 80bc 7cb4 68bd 00e7 acba c469 a23c
00000230: 7b6d 46bd 6cc2 3bbd 2c4c cfbc 8004 953b
00000240: 7e79 b1bd 915d 8f3d b036 4dbc 45b9 9cbd
00000250: 6f06 a43d 0260 12bd c30c 3dbd 6885 df3c
00000260: 6bad 883d 56ea 623d e040 283c 1c84 bbbc
00000270: 4b77 2ebd 90a6 47bc 6ecf 9fbd e485 2cbd
00000280: bac6 513d c1fd 8d3d 0afb 6bbd c872 7a3c
00000290: d2e8 793d 2a57 233d 808c 85bc b34b 1fbd
000002a0: 9c22 4bbd 9fa0 a33d c025 5bbc 08bf 433c
000002b0: 10aa 13bc e894 87bc 681e adbc 383b c1bc
000002c0: 33ba 8cbd 66f5 433d b99e 923d edc3 94bd
000002d0: b9c5 6ebd 4c59 90bd 3699 76bd 2edb 723d
000002e0: 281d 9b3c d0b2 01bc 00b4 9bba 00d0 923c
000002f0: 0037 68bc 2f92 67bd cbd3 41bd e3a2 16bd
00000300: e0bb b13b 9087 013c 86f8 5a3d ea50 553d
00000310: b7b2 19bd 3045 53bc 20b1 103b 8e28 27bd
00000320: b005 5b3c ff14 8bbd c8f4 3dbd 9574 813d
00000330: e2dc 053d e0e0 e1bb 480b febc 3e51 253d
00000340: 86c7 5e3d 54fb d2bc 90d2 d3bc 6c8d 67bd
00000350: 75f9 81bd 8041 a3ba 4473 abbd 021e ebbc
00000360: 1a76 333d da1b 4d3d a059 273b b8f1 29bc
00000370: b4d2 c1bc 1860 89bc a098 433c aad1 013d
00000380: 0e86 98bd 0ab8 8cbd afc0 853d 803f fa3b
00000390: 0517 a93d 15a3 a63d 80b1 0abd c82b 213c
000003a0: b237 9ebd 0564 9a3d 82bb 133d e217 62bd
000003b0: e2fc 573d af5b aebd d0d3 6b3c 3a29 013d
000003c0: e146 a33d e83f 523c d898 8cbc 3c1c 98bc
000003d0: f60a a8bd 88c0 0f3d e7fe b23d ec27 b1bd
000003e0: d108 833d 00a8 863c d789 963d f710 8dbd
000003f0: 70a4 6ebc c0ce 85bb 00eb 98bc cb0e ad3d

hidden_layer.bias f4 [128]
0.002116464 -0.010827534 0.07096436 0.059298523 0.0167569 0.045054816 -0.020497888 0.03782434
0.07222504 0.06074307 0.068288796 0.031878255 0.012757823 0.008583605 -0.031364158 -0.058420967
0.033535667 -0.08139331 0.053067915 0.082373686 -0.06267373 -0.07070541 0.0060463846 0.077266105
0.012234017 0.087602176 0.034393474 0.08517828 0.009066589 0.03411956 -0.0011731908 -0.044639327
0.032713793 -0.0800588 -0.027125247 0.08684457 -0.01741352 -0.05305754 -0.014864169 0.072172455
0.05202023 -0.034651473 0.040059276 -0.034016173 -0.0250749 0.060828336 -0.06462592 -0.0026088282
-0.04057085 -0.015385352 -0.08501386 -0.02117648 0.037119187 -0.073837124 0.022023559 -0.032185934
-0.0828367 -0.04934085 -0.05033461 0.0053945854 0.018144988 -0.049280718 0.012468383 0.032992974
0.0045317486 -0.065058865 0.013579443 -0.07310431 0.0036106557 0.066400595 0.01611112 -0.050351057
-0.013528556 0.032489173 0.041049413 0.06661659 -0.072388716 0.050218888 0.071445696 -0.04641604
0.020732753 0.068327464 -0.02160833 0.02230762 -0.07917669 0.042227216 -0.016362242 0.025825858
-0.047907554 -0.068497166 0.025063246 -0.008485854 -0.077027254 -0.0013090074 0.081666045 0.038987257
0.08704088 0.07022261 0.011531189 -0.0033024698 -0.042619903 0.03142956 -0.004139915 0.008962162
-0.06410589 -0.0046131536 -0.05235279 0.0012595803 0.08058717 -0.028870411 -0.021739684 0.022134386
-0.007595986 -0.015546486 0.027885474 0.051339082 -0.04293434 -0.0075354055 -0.018074416 -0.0030243024
0.05376894 0.031000242 -0.053755954 -0.049389645 0.03510035 0.003949158 -0.015007451 0.055833153
00000000: 60b4 0a3b f865 31bc c355 913d 02e3 723d
00000010: c445 893c 668b 383d 30eb a7bc b2ed 1a3d
00000020: b9ea 933d bacd 783d ffda 8b3d c692 023d
00000030: 3006 513c 40a2 0c3c b477 00bd d34a 6fbd
00000040: b25c 093d 89b1 a6bd be5d 593d 89b3 a83d
00000050: 165b 80bd ffcd 90bd c020 c63b b13d 9e3d
00000060: 3071 483c c568 b33d 2ce0 0c3d f371 ae3d
00000070: 088c 143c f4c0 0b3d c0c5 99ba bad7 36bd
00000080: e6fe 053d def5 a3bd c435 debc 91db b13d
00000090: cca6 8ebc dd52 59bd d888 73bc 27cf 933d
000000a0: 2a13 553d b4ee 0dbd 3215 243d 8b54 0bbd
000000b0: e069 cdbc 2227 793d 985a 84bd e0f8 2abb
000000c0: 9f2d 26bd d812 7cbc bf1b aebd 4c7a adbc
000000d0: 4a0a 183d eb37 97bd c06a b43c 66d5 03bd
000000e0: 4aa6 a9bd a219 4abd aa2b 4ebd 10c5 b03b
000000f0: cca4 943c 94da 49bd 3048 4c3c a423 073d
00000100: 107f 943b 953d 85bd 507c 5e3c b6b7 95bd
00000110: c0a0 6c3b 09fd 873d 78fb 833c e93c 4ebd
00000120: e0a6 5dbc 5e13 053d 6e23 283d 476e 883d
00000130: 8940 94bd 52b2 4d3d 1f52 923d bf1e 3ebd
00000140: bcd7 a93c 45ef 8b3d f403 b1bc 78be b63c
00000150: 6327 a2bd 72f6 2c3d 1c0a 86bc c090 d33c
00000160: b63a 44bd 3e48 8cbd 7051 cd3c 4008 0bbc
00000170: 77c0 9dbd 0093 abba 8740 a73d 1ab1 1f3d
00000180: 7d42 b23d dfd0 8f3d 50ed 3c3c 406e 58bb
00000190: 3592 2ebd 48bc 003d 20a8 87bb 08d6 123c
000001a0: f349 83bd f029 97bb e16f 56bd 8018 a53a
000001b0: e30a a53d a481 ecbc 6c17 b2bc 2c53 b53c
000001c0: c0e7 f8bb b0b6 7ebc 1470 e43c ee48 523d
000001d0: ebdb 2fbd 90eb f6bb cc10 94bc 6033 46bb
000001e0: d23c 5c3d 38f4 fd3c 342f 5cbd cc4c 4abd
000001f0: 62c5 0f3d f067 813b d0e1 75bc 4eb1 643d

output_layer.weight f4 [36, 128]
-0.0011311918 -0.073025346 -0.051163767 -0.002821818 -0.06523837 -0.037506755 -0.06305047 -0.033270575
-0.0348112 0.019497946 -0.06148793 -0.04362767 -0.056517288 -0.05207479 -0.08002669 0.05790987
-0.0020174086 0.06955073 0.03166102 0.011838399 -0.08626779 -0.0058707073 0.0023818165 0.038885795
-0.008226119 -0.027407788 0.018894546 0.05378077 -0.011938207 0.0112615675 0.05518984 -0.07996694
0.06574451 0.011182599 0.019849911 -0.004823178 0.05066549 -0.076914616 0.060500212 0.027964361
-0.019816786 0.08001543 -0.08655519 0.0072527006 0.010861412 0.050952576 0.012242258 -0.054340973
0.036425643 0.05880762 -0.013777539 -0.08655102 0.052378245 -0.037658207 -0.03190683 0.082115315
0.030443862 -0.037756346 -0.06835762 -0.05358922 0.04875966 0.047052465 0.06588461 -0.07612605
-0.032311827 0.0045038983 -0.0859325 0.052265964 -0.022533782 -0.009525672 -0.040979516 0.016908675
0.0003783852 0.053682037 -0.0775468 0.07197053 -0.015734427 0.04440879 0.07392148 0.054338522
0.034942172 -0.064555824 0.07977911 -0.026039217 0.024018869 -0.06276852 -0.06761339 0.07440428
-0.08497723 -0.00078071654 0.030597538 0.066689424 0.00090526044 -0.05238559 0.04057289 0.06416773
0.050904475 -0.06478169 0.052660547 -0.08832678 0.00930202 -0.069032416 0.003462933 0.0054531395
0.023895174 -0.06654508 -0.0068355426 0.044147097 -0.009431697 -0.0249511 -0.087154225 -0.016857527
0.04269538 -0.034620803 0.007844225 -0.077448286 -0.06612008 -0.050775435 0.048702307 0.029560901
0.072610475 0.07140257 0.05943563 0.05414843 -0.048651382 -0.04768213 -0.024919674 -0.016812228
-0.05892162 0.032402262 0.060035296 -0.034633636 0.056320734 0.033325292 0.07003034 -0.06162951
-0.059914462 0.057534374 0.08566279 -0.012431867 -0.05105904 -0.08772459 0.018642016 -0.08008258
-0.018252261 0.02238568 -0.04853213 0.07748716 0.07804222 0.08296164 0.064349435 0.008487374
0.023299024 -0.084699795 -0.031391826 -0.082323804 0.0074615926 -0.08507727 -0.039138142 0.08225667
0.06823098 -0.037898384 0.06411367 -0.011510164 0.04045961 0.059079193 0.025937885 -0.015525751
-0.012126863 -0.054814473 0.059407853 -0.031087335 -0.07736042 0.03234601 -0.014878847 -0.0014704838
0.0061287433 -0.050055146 -0.010369346 0.006710261 0.08008539 -0.0024651513 -0.029540643 0.03135418
-0.08274841 0.073748 0.0690142 -0.073968686 -0.01785288 -0.05660019 0.048921086 -0.009536602
-0.0412475 -0.040873203 0.034615733 -0.0036834776 -0.0764296 -0.032025 -0.027745564 0.032370917
0.0018230826 -0.0519576 0.025085017 0.04143379 0.048925348 -0.050114952 -0.07771826 -0.057680953
0.036715306 0.0107733235 0.08637183 0.051098473 0.048171334 -0.08469347 -0.03441384 0.04112517
0.014333665 -0.00027626008 0.06894041 0.0659154 0.053711303 -0.087167025 -0.064846665 0.07735308
0.04139126 0.07964528 -0.0015880316 0.06382079 -0.02402974 -0.013743237 0.036886327 0.048161633
0.07558318 -0.07418665 -0.025357895 -0.06194771 -0.042456165 0.08747623 -0.009108879 0.016087957
-0.0071691573 -0.020976 -0.075766176 0.023243077 -0.076614425 0.04880867 -0.017318442 -0.034541953
0.043261163 -0.062049538 -0.084250055 -0.023662671 0.053515874 -0.019437961 -0.02206438 -0.0708794
00000000: 8044 94ba 508e 95bd 1991 51bd 40ee 38bb
00000010: b29b 85bd afa0 19bd 9b20 81bd ba46 08bd
00000020: 3096 0ebd 28ba 9f3c c5da 7bbd edb2 32bd
00000030: ac7e 67bd 604c 55bd 09e5 a3bd e632 6d3d
00000040: 8036 04bb 9d70 8e3d fcae 013d d8f5 413c
00000050: 2bad b0bd 105f c0bb 4018 1c3b b646 1f3d
00000060: d8c6 06bc 4c86 e0bc bcc8 9a3c 3a49 5c3d
00000070: 7898 43bc 7082 383c be0e 623d b5c5 a3bd
00000080: 0fa5 863d 3837 373c 489c a23c c00b 9ebb
00000090: 9e86 4f3d 6985 9dbd 12cf 773d 8415 e53c
000000a0: d056 a2bc 21df a33d d943 b1bd 10a8 ed3b
000000b0: 10f4 313c a6b3 503d c093 483c a494 5ebd
000000c0: 0e33 153d 42e0 703d 30bb 61bc a941 b1bd
000000d0: 928a 563d 7e3f 1abd bcb0 02bd 132c a83d
000000e0: 6865 f93c 66a6 1abd 14ff 8bbd 5f80 5bbd
000000f0: 36b8 473d 16ba 403d 83ee 863d f9e7 9bbd
00000100: 6859 04bd 7095 933b 61fd afbd d614 563d
00000110: c498 b8bc 9011 1cbc 23da 27bd 1084 8a3c
00000120: 0062 c639 b2e1 5b3d dbd0 9ebd 4965 933d
00000130: 7ce5 80bc fee5 353d 2564 973d 1292 5e3d
00000140: 861f 0f3d d835 84bd 3b63 a33d 3250 d5bc
00000150: 38c3 c43c c88c 80bd e478 8abd 4561 983d
00000160: 8b08 aebd 00a9 4cba b0a7 fa3c 7794 883d
00000170: 004f 6d3a 4692 56bd c22f 263d 5f6a 833d
00000180: 3681 503d 43ac 84bd 96b2 573d ace4 b4bd
00000190: 8067 183c de60 8dbd 60f2 623b 40b0 b23b
000001a0: d0bf c33c c948 88bd b0fc dfbb 96d3 343d
000001b0: 6887 1abc 4066 ccbc ea7d b2bd cc18 8abc
000001c0: 5ae1 2e3d 8bce 0dbd 1085 003c 359d 9ebd
000001d0: f769 87bd e7f9 4fbd 127c 473d b429 f23c
000001e0: cdb4 943d 833b 923d c672 733d beca 5d3d
000001f0: ac46 47bd 564e 43bd 5824 ccbc ccb9 89bc
00000200: cc57 71bd 3cb8 043d 92e7 753d 00dc 0dbd
00000210: 92b0 663d 1a80 083d 116c 8f3d 3a6f 7cbd
00000220: de68 75bd 2aa9 6b3d f96f af3d 08af 4bbc
00000230: 4923 51bd f3a8 b3bd 24b7 983c 5602 a4bd
00000240: c485 95bc 2c62 b73c a0c9 46bd 97b1 9e3d
00000250: 99d4 9f3d cbe7 a93d a3c9 833d a00e 0b3c
00000260: 98dd be3c 1677 adbd b794 00bd 6299 a8bd
00000270: 6080 f43b fe3c aebd 514f 20bd 2f76 a83d
00000280: afbc 8b3d 563b 1bbd 074e 833d 2095 3cbc
00000290: fab8 253d 06fd 713d b07b d43c b85f 7ebc
000002a0: c0af 46bc 2485 60bd a655 733d deaa febc
000002b0: 246f 9ebd 407d 043d 68c6 73bc 40bd c0ba
000002c0: a0d3 c83b a006 4dbd 30e4 29bc c0e1 db3b
000002d0: cf03 a43d 608e 21bb 38ff f1bc 3e6d 003d
000002e0: 0078 a9bd 3109 973d 5157 8d3d e57c 97bd
000002f0: 3440 92bc 9ad5 67bd 7a61 483d 683f 1cbc
00000300: 23f3 28bd a96a 27bd 3ac9 0d3d 8066 71bb
00000310: 1f87 9cbd a52c 03bd aa4a e3bc 5e97 043d
00000320: 80f4 ee3a 7ed1 54bd 187f cd3c 7ab6 293d
00000330: f265 483d 5645 4dbd c02a 9fbd dd42 6cbd
00000340: ca62 163d 9882 303c b7e3 b03d a24c 513d
00000350: 4e4f 453d c573 adbd 87f5 0cbd de72 283d
00000360: c0d7 6a3c 00d7 90b9 a130 8d3d a7fe 863d
00000370: 6200 5c3d a084 b2bd 54ce 84bd 4b6b 9e3d
00000380: e289 293d 111d a33d 8025 d0ba 79b4 823d
00000390: 04da c4bc 502b 61bc 1e16 173d 2245 453d
000003a0: 5bcb 9a3d 2cef 97bd 5cbb cfbc e2bc 7dbd
000003b0: 84e6 2dbd bd26 b33d 683d 15bc e4ca 833c
000003c0: 40eb eabb dcd5 abbc 4c2b 9bbd 4468 be3c
000003d0: 06e8 9cbd 9aeb 473d 68df 8dbc dd7b 0dbd
000003e0: 9e32 313d a827 7ebd 4b8b acbd 38d8 c1bc
000003f0: 7633 5b3d 5c3c 9fbc 5cc0 b4bc 3829 91bd

output_layer.bias f4 [36]
0.0327921 -0.03420299 0.021989979 0.057992138 -0.03499561 0.008620739 0.038334094 0.085565336
-0.08437995 0.059949674 -0.06270822 -0.07828208 0.07894441 -0.03673794 -0.0606767 0.031259283
0.004903786 0.06426055 0.07783846 -0.004952371 0.024231918 -0.03182011 0.00276009 0.08410854
0.060484327 0.019068278 -0.04212259 -0.002893716 -0.051555436 -0.068888254 -0.08647498 0.088157974
-0.008586749 -0.03353535 0.07864756 -0.01564537
00000000: 0251 063d 6f18 0cbd 5424 b43c 2a89 6d3d
00000010: 8f57 0fbd 003e 0d3c 3604 1d3d e13c af3d
00000020: 65cf acbd ca8d 753d 2b6d 80bd 5b52 a0bd
00000030: 9bad a13d 867a 16bd 2288 78bd bc09 003d
00000040: f0af a03b 099b 833d c569 9f3d 8047 a2bb
00000050: 0482 c63c ce55 02bd a0e2 343b 1941 ac3d
00000060: 6abe 773d 1435 9c3c bd88 2cbd 80a4 3dbb
00000070: cb2b 53bd 4915 8dbd cb19 b1bd 2b8c b43d
00000080: 70af 0cbc 5d5c 09bd f911 a13d b82a 80bc

input_layer.weight f4 [128, 36]
0.044337522 0.15024173 -0.10215574 0.009217947 0.11102942 0.15099148 0.054617867 -0.14084966
-0.10256631 -0.09019398 -0.041649863 0.16436665 -0.15281428 0.16055438 -0.09785167 0.08924302
0.11020468 -0.116117716 -0.14107056 -0.0072187656 -0.05509815 0.15726207 0.011389108 0.108699016
0.12945527 -0.10663753 0.04659599 -0.023381812 0.076614395 -0.10924899 -0.014364196 0.11250196
-0.12446317 -0.16165729 -0.08107095 0.038211048 -0.11655261 0.011206761 0.13539428 -0.00483683
-0.01772494 -0.11178573 -0.094442874 0.014879674 0.10880297 0.104244135 0.094945185 -0.09660905
-0.010959531 -0.072886325 -0.054214608 0.08577632 0.007950957 -0.05361663 -0.0814485 -0.0065171253
0.15140526 -0.016735772 0.022872401 0.11692137 0.052666385 -0.048053883 -0.054942366 -0.12113288
0.111022 0.093393564 0.07581758 -0.153932 0.07840568 -0.019011272 -0.13707975 0.05763452
0.04911006 0.0034676155 0.13309981 -0.13922611 0.02241969 -0.065632 -0.104743935 0.0039227824
0.14575481 -0.09717895 -0.0069950423 0.102610335 0.13162653 0.079715304 0.077881485 0.15163232
0.07903896 0.04299465 0.0062186834 -0.14418502 0.119622335 0.15631716 0.084657855 -0.009764806
0.050992656 -0.16458449 -0.14109871 -0.06580964 0.025957009 -0.097469345 0.08588746 0.15364552
0.08980522 0.01969292 -0.040374845 0.02383144 -0.13400717 0.12811214 0.08728051 -0.14927049
0.015179329 -0.069534756 0.09288019 0.07847739 -0.09821915 -0.0078845015 -0.00361223 0.10677356
0.15540642 0.09532024 -0.13012294 -0.13602829 0.09862264 0.1141321 -0.062853314 0.15124762
0.13614155 0.04925301 0.11426543 -0.07436878 0.026193026 -0.16005553 -0.072428286 0.14331205
-0.08070503 -0.013230743 -0.016307043 -0.09156686 -0.058135975 -0.08513777 -0.013506197 0.04342747
0.0036925545 -0.012941014 0.15411082 0.13824572 0.120017655 -0.04125568 -0.06666292 -0.08290759
-0.021903347 -0.012890771 0.06610986 0.16342625 -0.121176705 0.16996399 0.118608 0.15943928
-0.12750793 0.03543205 0.031664524 0.15985247 0.10329531 -0.051685434 0.13085362 0.07801449
-0.0895954 0.11519824 -0.14470077 -0.13414381 0.04506668 -0.11406058 0.019793626 -0.008326863
-0.15629603 0.15176843 -0.14087975 -0.028686916 -0.15456988 -0.13288057 -0.07112427 0.070507765
-0.07282511 -0.08130383 -0.033972077 -0.1601622 -0.1691197 0.08926875 -0.101846814 -0.045059673
-0.053262167 -0.011961072 -0.00044489355 0.046143614 -0.031379156 -0.018491179 0.12683697 0.15775535
0.12297779 -0.1260223 -0.06980595 0.017847339 -0.061463676 0.012391227 0.051813208 -0.13899821
0.13905993 -0.10364496 -0.07446411 -0.09092331 0.112700865 0.04314278 -0.10070335 0.115197234
0.16335742 0.12530899 0.06503541 0.011037614 -0.14481483 0.13989653 0.15894677 0.06931198
-0.06727201 0.07984123 -0.119234025 0.07671118 0.0009817159 0.06498645 0.0019291687 -0.0945558
0.050096333 0.041372035 0.12706785 -0.045043282 -0.11531788 -0.042559143 0.14934741 0.052593213
0.05149246 0.0066346675 -0.114600375 0.0689179 -0.03958262 0.15667728 0.03313408 -0.1450434
0.14580002 0.11406196 -0.04864285 0.081400245 -0.03591655 0.13031726 -0.06261244 0.028135892
00000000: 439b 353d f8d8 193e 0737 d1bd df06 173c
00000010: 6463 e33d 839d 1a3e fcb6 5f3d e53a 10be
00000020: 490e d2bd 9fb7 b8bd 0c99 2abd bb4f 283e
00000030: 597b 1cbe 5e68 243e 7566 c8bd 0bc5 b63d
00000040: feb2 e13d 20cf edbd cd74 10be 658b ecbb
00000050: 99ae 61bd 4f09 213e 6299 3a3c 979d de3d
00000060: ec8f 043e c764 dabd 70db 3e3d 378b bfbc
00000070: 02e8 9c3d efbd dfbd ce57 6bbc 6d67 e63d
00000080: 8ce6 febd 7d89 25be 8708 a6bd 3083 1c3d
00000090: 23b3 eebd 909c 373c cca4 0a3e 457e 9ebb
000000a0: e533 91bc ebef e4bd 446b c1bd e0c9 733c
000000b0: 17d4 de3d f37d d53d 9f72 c23d f7da c5bd
000000c0: 9b8f 33bc 6d45 95bd 2310 5ebd 7fab af3d
000000d0: bb44 023c 1d9d 5bbd 79ce a6bd 9c8d d5bb
000000e0: fb09 1b3e 7519 89bc e75e bb3c 7974 ef3d
000000f0: b5b8 573d 26d4 44bd 3f0b 61bd 8414 f8bd
00000100: 815f e33d 2045 bf3d 3f46 9b3d 5aa0 1dbe
00000110: 2893 a03d 87bd 9bbc a25e 0cbe 2d12 6c3d
00000120: a127 493d ef40 633b 514b 083e 4a91 0ebe
00000130: 7fa9 b73c 126a 86bd fd83 d6bd af8a 803b
00000140: c040 153e c205 c7bd ab36 e5bb 5e25 d23d
00000150: 1bc9 063e c741 a33d 5480 9f3d 8145 1b3e
00000160: 2edf a13d 281b 303d 19c6 cb3b 3da5 13be
00000170: 8efc f43d 9b11 203e 1961 ad3d 91fc 1fbc
00000180: addd 503d d688 28be 2e7c 10be 34c7 86bd
00000190: cba3 d43c 029e c7bd c4e5 af3d 4055 1d3e
000001a0: cdeb b73d 0c53 a13c 1860 25bd 273a c33c
000001b0: 2d39 09be d42f 033e 20c0 b23d 5dda 18be
000001c0: b8b2 783c 3d68 8ebd f837 be3d c1b8 a03d
000001d0: 1f27 c9bd ff2d 01bc 2abb 6cbb 19ac da3d
000001e0: dc22 1f3e 4237 c33d f33e 05be 004b 0bbe
000001f0: abfa c93d 17be e93d 3db9 80bd a8e0 1a3e
00000200: b168 0b3e 86bd 493d fe03 ea3d a94e 98bd
00000210: c292 d63c 99e5 23be 4855 94bd 65c0 123e
00000220: ae48 a5bd c2c5 58bc 5996 85bc 6887 bbbd
00000230: fd1f 6ebd b65c aebd 1949 5dbc 01e1 313d
00000240: c9fe 713b 8c06 54bc 3acf 1d3e 4990 0d3e
00000250: d1cb f53d b7fb 28bd 9286 88bd 74cb a9bd
00000260: a66e b3bc d033 53bc 9b64 873d 3659 273e
00000270: 7e2b f8bd 0a0b 2e3e c0e8 f23d 0d44 233e
00000280: 7091 02be 3221 113d a9b2 013d 5eb0 233e
00000290: 7e8c d33d 1bb4 53bd 7efe 053e 10c6 9f3d
000002a0: cb7d b7bd 0eed eb3d 702c 14be ff5c 09be
000002b0: d797 383d 9898 e9bd 3e26 a23c 656d 08bc
000002c0: 110c 20be 2f69 1b3e c842 10be d300 ebbc
000002d0: 9147 1ebe d811 08be 9aa9 91bd 6066 903d
000002e0: 5525 95bd 9f82 a6bd 4e26 0bbd 8f01 24be
000002f0: b72d 2dbe 89d2 b63d 1095 d0bd 7e90 38bd
00000300: 6e29 5abd 5ff8 43bc 9a40 e9b9 1601 3d3d
00000310: 6e87 00bd d07a 97bc 8de1 013e 9e8a 213e
00000320: c8db fb3d fd0b 01be 6cf6 8ebd 9534 923c
00000330: 56c1 7bbd 9304 4b3c 163a 543d 8c55 0ebe
00000340: ba65 0e3e cf43 d4bd a480 98bd 0036 babd
00000350: b6cf e63d 7cb6 303d 8f3d cebd 87ec eb3d
00000360: 2b47 273e 0051 003e 4931 853d 1cd7 343c
00000370: 574a 14be 0941 0f3e f1c2 223e 70f3 8d3d
00000380: e8c5 89bd cc83 a33d f830 f4bd c01a 9d3d
00000390: ebac 803a 9e17 853d 29dc fc3a 79a6 c1bd
000003a0: d031 4d3d b975 293d 131e 023e 4e7f 38bd
000003b0: c82b ecbd 7f52 2ebd 87ee 183e fb6b 573d
000003c0: c2e9 523d a067 d93b 9ab3 eabd d424 8d3d
000003d0: 6321 22bd 0270 203e 9ab7 073d 4286 14be
000003e0: 9a4c 153e 5199 e93d ba3d 47bd 2cb5 a63d
000003f0: 3b1d 13bd e371 053e f33a 80bd 3e7d e63c

input_layer.bias f4 [128]
-0.14606868 -0.025394851 0.060354665 -0.014424839 -0.03250298 -0.15132211 0.004695209 -0.078544036
0.15320893 -0.15205014 -0.15558074 0.066819176 0.11285023 -0.07941204 -0.0065204124 -0.028799513
0.040066995 0.10659881 0.14006712 -0.08805279 0.030091755 0.043293707 -0.11547263 0.036653645
0.16276722 -0.030435914 -0.03677957 -0.12248831 -0.051098302 -0.0071204375 -0.13952374 0.11690719
0.102864645 0.09361725 -0.08129655 0.13047783 0.09180019 0.04007421 0.012389141 0.15033543
0.052509848 -0.08354783 0.06641425 -0.036571354 0.14979962 -0.13187897 4.016379e-07 -0.12164985
-0.063638955 0.0651403 -0.12627761 -0.06860407 0.08943085 -0.11746257 -0.14060232 0.14788747
-0.01656971 0.11507888 -0.14902358 0.037120964 -0.052530922 -0.072544575 -0.009076888 -0.14989018
-0.024873625 -0.12589945 0.14058761 0.003628705 -0.115342826 0.08982884 0.09575542 0.16118263
0.060053915 0.12127547 -0.00031585962 -0.079555154 0.07187519 -0.12682638 -0.012714315 -0.040824793
-0.1315884 0.07337153 -0.026132787 0.15212592 -0.15595165 -0.11774754 0.15513471 0.115800396
-0.16069187 0.026932126 -0.12159165 -0.15360872 -0.026707847 -0.10692843 0.08476231 -0.034862973
-0.09853216 0.05065032 0.018371213 0.13262857 -0.06669809 0.15838902 0.09447001 -0.13610941
0.047604106 0.12537526 -0.12208759 0.14079358 -0.016441165 0.123712175 -0.114858024 0.12799752
0.043524943 -0.12162179 0.03334589 0.045842897 0.1293213 -1.4213173e-07 0.11859472 -0.06728133
-0.09140353 -0.05478748 -1.6958614e-08 -0.07119988 0.12509036 -0.14672096 0.103013106 0.045273706
00000000: 0793 15be dd08 d0bc 7436 773d 2956 6cbc
00000010: d821 05bd 2ff4 1abe 45da 993b b2db a0bd
00000020: cde2 1c3e 08b3 1bbe 8f50 1fbe 7ed8 883d
00000030: 051e e73d c8a2 a2bd 2fa9 d5bb f5ec ebbc
00000040: 4a1d 243d 7a50 da3d c16d 0f3e 0555 b4bd
00000050: fc82 f63c be54 313d ea7c ecbd 2222 163d
00000060: 73ac 263e bd54 f9bc 2da6 16bd 27db fabd
00000070: 744c 51bd 8f52 e9bb 50df 0ebe 096d ef3d
00000080: b3aa d23d 67ba bf3d ce7e a6bd fb9b 053e
00000090: bd01 bc3d db24 243d d3fb 4a3c 88f1 193e
000000a0: 9114 573d 201b abbd 3204 883d d8cb 15bd
000000b0: 1265 193e 480b 07be b1a0 d734 8e23 f9bd
000000c0: 2455 82bd 4768 853d eb4e 01be 4a80 8cbd
000000d0: 8627 b73d 3790 f0bd 0efa 0fbe d06f 173e
000000e0: 33bd 87bc 7aae eb3d a399 18be 270c 183d
000000f0: aa2a 57bd 4092 94bd 3ab7 14bc d07c 19be
00000100: c6c3 cbbc c9eb 00be 33f6 0f3e 91cf 6d3b
00000110: dc38 ecbd 2ff8 b73d 6b1b c43d 0f0d 253e
00000120: 18fb 753d 465f f83d f699 a5b9 d0ed a2bd
00000130: 4d33 933d c6de 01be b44f 50bc e637 27bd
00000140: 1cbf 06be d043 963d 6d14 d6bc e6c6 1b3e
00000150: cab1 1fbe 9f25 f1bd a2db 1e3e c228 ed3d
00000160: 698c 24be c3a0 dc3c 0b05 f9bd 9b4b 1dbe
00000170: 6aca dabc 4bfd dabd dd97 ad3d 7acc 0ebd
00000180: 3bcb c9bd b676 4f3d 3a7f 963c c9cf 073e
00000190: 0299 88bd bb30 223e 7e79 c13d 4460 0bbe
000001a0: 86fc 423d 5f62 003e 0f09 fabd 312c 103e
000001b0: 9faf 86bc cf5c fd3d af3a ebbd c811 033e
000001c0: 3647 323d d814 f9bd b395 083d c3c5 3b3d
000001d0: ce6c 043e df9c 18b4 cae1 f23d cbca 89bd
000001e0: c631 bbbd d668 60bd 63ac 91b2 3ed1 91bd
000001f0: b017 003e 053e 16be 89f8 d23d ec70 393d

hidden_layer.weight f4 [64, 128]
0.062374525 -0.03520919 0.06398759 0.029949745 0.05076753 -0.07455503 -0.0620057 0.07934185
-0.03560946 -0.078098014 -0.074644946 0.09026594 -0.041348282 -0.080332935 -0.020126162 0.05479099
-0.032292645 -0.022589024 0.06684581 0.029304504 -0.065276414 -0.017691748 -0.049374502 -0.0038826705
-0.0038968301 -0.032319743 -0.052175667 -0.0077322596 -0.055062853 -0.06875742 -0.07519307 -0.0004377284
-0.06920008 -0.01595459 -0.008405708 -0.0329225 -0.03467388 -0.008351411 -0.03160098 0.0040820423
0.06838686 0.06403893 0.025029762 -0.050902694 -0.06383688 0.053420905 -0.081841916 -0.06087297
-0.009598054 0.033970352 0.085186966 0.012982234 0.070224285 -0.029875066 -0.078139365 0.075225115
0.0055114133 -0.04864953 0.07335976 0.08023075 0.08015602 -0.04402351 0.0058307676 -0.028263168
-0.078981936 0.07195483 -0.053924173 -0.052742917 0.02759323 0.083045416 0.06252529 -0.04688742
-0.06721359 0.0102955485 -0.063892506 0.08368736 -0.074985094 0.06484543 0.02638417 -0.036598656
0.057720583 -0.07035511 -0.080874614 0.08514347 0.079932936 0.084078826 -0.017153822 -0.05765297
0.01755475 -0.018036341 0.08757841 -0.05100848 0.037385315 0.008748257 0.059463613 -0.004959527
0.04431652 0.024190025 0.06318045 -0.069067575 0.051539782 -0.046936717 0.020348584 -0.024796626
0.08036147 -0.004736808 -0.04031258 0.025269894 -0.056440685 0.06705006 -0.0071011283 -0.004941078
-0.07638137 0.049145725 0.014620165 0.027360905 0.021748025 -0.08406649 0.033913825 0.084650405
-0.010445602 0.05082391 -0.00015203666 0.05455607 0.0040211924 0.046920855 -0.051947907 0.017426237
-0.013966703 0.067457385 0.076203346 -0.08391388 0.058889527 -0.06507249 0.065343514 -0.015428071
-0.044350035 0.03397411 -0.054835826 0.010624562 0.06091303 -0.05672969 0.05191957 0.025560463
0.021482892 0.004142963 -0.007752963 -0.0113998 0.07752089 0.045343935 0.020752842 0.06774366
0.03430667 0.085530646 0.03711999 -0.005496845 -0.003487823 -0.05974212 0.083849825 0.06943179
0.025774272 0.012001214 0.067832045 0.08423365 -0.006182365 0.014668516 0.074006036 0.039153647
0.07442121 -0.067506105 0.020997018 0.0068991636 0.0244583 -0.0070740264 0.08431975 0.08056663
-0.056833033 -0.025244484 0.009366175 -0.014354857 0.081068724 0.048438944 -0.07115658 0.078270264
-0.015627462 0.029434022 -0.08895545 -0.08506961 0.064687856 -0.042781737 -0.057491783 -0.062607326
0.05714271 -0.004255201 0.07595169 -0.037074562 -0.04773325 0.0055032126 0.014753829 0.030419502
0.022930386 -0.01963129 -0.08349441 -0.011266496 0.071362935 0.059820063 0.06700753 0.014753056
-0.06313311 0.008534508 0.063932255 -0.028511703 -0.056337547 -0.00270263 -0.070111915 0.017460128
-0.06937119 0.06325653 -0.062268984 0.045453563 0.010768069 0.005434269 -0.012786257 0.050221656
0.086843155 0.037882503 0.023189122 0.034849156 0.065857366 0.07989459 -0.024797348 0.0023378476
0.066733226 -0.009195687 0.069056414 0.08089202 -0.030685289 0.061290596 -0.08271112 0.08610117
-0.021540305 0.027493885 -0.03139615 0.08582489 -0.02456255 0.056524046 -0.009138181 -0.025928179
-0.05311744 0.023803325 -0.046647944 0.060842726 -0.07710015 -0.026866889 0.043479092 -0.029050423
00000000: 6e7c 7f3d 8337 10bd ed0b 833d 2b59 f53c
00000010: 9df1 4f3d 4fb0 98bd b0f9 7dbd fb7d a23d
00000020: 3adb 11bd daf1 9fbd 73df 98bd 59dd b83d
00000030: d15c 29bd 9885 a4bd 9fdf a4bc 846c 603d
00000040: 4b45 04bd 9e0c b9bc 75e6 883d 0010 f03c
00000050: a4af 85bd 49ee 90bc eb3c 4abd 6774 7ebb
00000060: f661 7fbb b561 04bd 27b6 55bd e55e fdbb
00000070: 9689 61bd b1d0 8cbd d3fe 99bd e97e e5b9
00000080: c6b8 8dbd 33b3 82bc 18b8 09bc bed9 06bd
00000090: 3306 0ebd 5bd4 08bc 0770 01bd a7c2 853b
000000a0: 690e 8c3d d826 833d 370b cd3c 587f 50bd
000000b0: e9bc 82bd e1cf 5a3d bc9c a7bd ef55 79bd
000000c0: 2841 1dbc 7f24 0b3d 8176 ae3d 70b3 543c
000000d0: c0d1 8f3d 8ebc f4bc 8807 a0bd a00f 9a3d
000000e0: 1699 b43b bb44 47bd a43d 963d 0550 a43d
000000f0: d728 a43d ff51 34bd 0610 bf3b 2988 e7bc
00000100: 48c1 a1bd 0e5d 933d 98df 5cbd f508 58bd
00000110: 330b e23c b713 aa3d 420d 803d 060d 40bd
00000120: 47a7 89bd a9ae 283c 13da 82bd 4764 ab3d
00000130: c991 99bd aecd 843d 9d23 d83c 79e8 15bd
00000140: 6b6c 6c3d 5716 90bd 97a1 a5bd b35f ae3d
00000150: e1b3 a33d 8531 ac3d 2c86 8cbc 8525 6cbd
00000160: fbce 8f3c f3c0 93bc 4f5c b33d 45ee 50bd
00000170: 5821 193d d954 0f3c 1e90 733d 8783 a2bb
00000180: 3d85 353d 292a c63c c064 813d 4d73 8dbd
00000190: 611b 533d b740 40bd 13b2 a63c 4b22 cbbc
000001a0: 8e94 a43d 3a37 9bbb ce1e 25bd cf02 cf3c
000001b0: 592e 67bd 8b51 893d 95b0 e8bb c4e8 a1bb
000001c0: d66d 9cbd 074d 493d 6b89 6f3c fa23 e03c
000001d0: ea28 b23c 0d2b acbd 39e9 0a3d 315d ad3d
000001e0: 0824 2bbc bb2c 503d 086c 1fb9 3076 5f3d
000001f0: 35c4 833b 1530 403d 54c7 54bd 78c1 8e3c
00000200: 99d4 64bc 1927 8a3d 8010 9c3d 0adb abbd
00000210: 2536 713d ba44 85bd d2d2 853d 05c6 7cbc
00000220: 62a8 35bd 7028 0b3d 889b 60bd a512 2e3c
00000230: f17f 793d 645d 68bd 9da9 543d 2d64 d13c
00000240: e4fc af3c b1c1 873b 910c febb 3ac6 3abc
00000250: 46c3 9e3d 90ba 393d dd01 aa3c 30bd 8a3d
00000260: 2785 0c3d b12a af3d 210b 183d e11e b4bb
00000270: f693 64bb 27b4 74bd 75b9 ab3d 4132 8e3d
00000280: 9124 d33c bda0 443c 87eb 8a3d b182 ac3d
00000290: 7095 cabb 3754 703c 7a90 973d 935f 203d
000002a0: 266a 983d a440 8abd f001 ac3c 6112 e23b
000002b0: c65c c83c 3ccd e7bb d5af ac3d 1e00 a53d
000002c0: c1c9 68bd 85cd cebc 9674 193c a230 6bbc
000002d0: 5c07 a63d ea67 463d 8aba 91bd 294c a03d
000002e0: 2a05 80bc 9e1f f13c 462e b6bd fa38 aebd
000002f0: 117b 843d e73b 2fbd 817c 6bbd 4538 80bd
00000300: 790e 6a3d 376f 8bbb 8f8c 9b3d 7fdb 17bd
00000310: f183 43bd 4b54 b43b 0bba 713c 5232 f93c
00000320: 81d8 bb3c cdd1 a0bc 1eff aabd 1c97 38bc
00000330: bb26 923d e205 753d 3e3b 893d cdb6 713c
00000340: ef4b 81bd 52d4 0b3c eaee 823d 6091 e9bc
00000350: 33c2 66bd 9b1e 31bb d696 8fbd 8b08 8f3c
00000360: 7c12 8ebd a48c 813d c30d 7fbd 842d 3a3d
00000370: 8e6c 303c f411 b23b 737d 51bc 39b5 4d3d
00000380: d3da b13d af2a 1b3d 1df7 bd3c fdbd 0e3d
00000390: 3ae0 863d c69f a33d cf23 cbbc 9336 193b
000003a0: 6eab 883d 82a9 16bc 736d 8d3d b7aa a53d
000003b0: b75f fbbc d90b 7b3d 7364 a9bd cf55 b03d
000003c0: 4b75 b0bc db3a e13c 4099 00bd f6c4 af3d
000003d0: 6737 c9bc c285 673d 4fb8 15bc 5567 d4bc
000003e0: ac91 59bd 31ff c23c ea11 3fbd 3936 793d
000003f0: afe6 9dbd f317 dcbc 2217 323d 27fb edbc

hidden_layer.bias f4 [64]
0.0056269355 -0.071588725 0.004446295 -0.02394338 0.06404138 -0.0556012 -0.051083107 -0.05592608
0.014981049 -0.075987294 0.080306046 0.026641872 -0.07275173 0.11036732 0.120160386 -0.06369538
-0.06702096 -0.044167794 0.03042755 0.05976087 0.02918753 0.03326411 -0.047999475 -0.004691319
0.0051223678 -0.018565167 0.030045895 -0.06345672 0.056785982 0.048281256 -0.086381264 -0.036675148
-0.07196102 0.00085869554 0.008103695 -0.042999797 0.008862998 0.07521944 0.052371815 0.050650433
-0.013875971 0.07328091 -0.048131466 -0.075797535 -0.056932032 0.0703735 -0.009857601 0.032376643
0.06604051 -0.083299726 0.06488239 0.050707623 -0.006680629 0.023272468 0.08101968 0.092065565
-0.020495025 0.0656087 -0.016665203 -0.017213477 -0.028748227 -0.03623991 0.022075191 -0.055078562
00000000: 2862 b83b 1c9d 92bd 3ab2 913b e824 c4bc
00000010: 2128 833d 15be 63bd 853c 51bd bf12 65bd
00000020: 1373 753c 3a9f 9bbd 7f77 a43d 0e40 da3c
00000030: dcfe 94bd 4308 e23d a616 f63d b972 82bd
00000040: 4942 89bd 4ae9 34bd 3343 f93c d0c7 743d
00000050: b01a ef3c f33f 083d 199b 44bd a3b9 99bb
00000060: 89d9 a73b fa15 98bc cf22 f63c 99f5 81bd
00000070: 6b98 683d 91c2 453d a9e8 b0bd ae38 16bd
00000080: 4d60 93bd 151a 613a 5cc5 043c 8e20 30bd
00000090: 1c36 113c a60c 9a3d d483 563d d476 4f3d
000000a0: 0a58 63bc 4d14 963d 8025 45bd bd3b 9bbd
000000b0: 9031 69bd fb1f 903d c681 21bc 5f9d 043d
000000c0: 3f40 873d 0c99 aabd 0fe1 843d ccb2 4f3d
000000d0: 2ee9 dabb e7a5 be3c a5ed a53d df8c bc3d
000000e0: 2fe5 a7bc db5d 863d 7785 88bc 4703 8dbc
000000f0: 6781 ebbc 4d70 14bd 08d7 b43c 0f9a 61bd

output_layer.weight f4 [1, 64]
-0.05834561 -0.009084039 -0.13784562 0.07023604 -0.07417782 -0.07823716 -0.14498869 0.02494274
-0.035737097 0.12015218 -0.08178987 -0.041929524 0.056590818 -0.14628042 -0.21189263 0.10577521
-0.0026249385 -0.12027918 0.067207396 0.058947064 0.025462525 0.08692783 -0.10014631 0.070582464
-0.030468363 -0.03667804 -0.15275635 -0.08496274 -0.13546556 -0.18377288 0.1016453 -0.07110425
-0.02542693 0.017763354 0.07498479 0.02541113 -0.11218877 -0.17361765 -0.011716647 0.050032247
-0.073460914 -0.10182647 -0.105930485 0.07982905 0.040587652 -0.043808375 -0.13561852 0.03771354
-0.056724854 0.070215955 -0.16605851 -0.15964659 -0.06749373 -0.14577173 -0.19875997 -0.19550274
-0.034703482 -0.10800031 -0.16982293 -0.047164377 -0.06749037 0.06682733 -0.06877337 0.014405688
00000000: cefb 6ebd 39d5 14bc 6727 0dbe ead7 8f3d
00000010: 8aea 97bd ce3a a0bd ea77 14be b854 cc3c
00000020: 1061 12bd 5912 f63d 7381 a7bd 4bbe 2bbd
00000030: c6cb 673d 89ca 15be 62fa 58be aca0 d83d
00000040: 2907 2cbb ee54 f6bd 08a4 893d 7a72 713d
00000050: c996 d03c 3807 b23d 8219 cdbd 8a8d 903d
00000060: ca98 f9bc b63b 16bd 296c 1cbe f200 aebd
00000070: 7cb7 0abe f52e 3cbe 692b d03d 1b9f 91bd
00000080: 234c d0bc 7484 913c a091 993d 012b d03c
00000090: 3ac3 e5bd d3c8 31be 2ef7 3fbc 9dee 4c3d
000000a0: ad72 96bd 658a d0bd 15f2 d8bd 6a7d a33d
000000b0: 3d3f 263d 6970 33bd 95df 0abe 8379 1a3d
000000c0: 5258 68bd 62cd 8f3d 3e0b 2abe 657a 23be
000000d0: 273a 8abd 2f45 15be bc87 4bbe df31 48be
000000e0: 3d25 0ebd 442f ddbd 10e6 2dbe 6f2f 41bd
000000f0: 6438 8abd c4dc 883d 0dd9 8cbd d605 6c3c
